…
r_7_3x2x3', momentum=0.9, output_dir='./logs', print_freq=64, random=False, random_erase=0.25, resize_size=256, resume='', start_epoch=0, sync_bn=False, tb=True, test_only=False, warmup=25, weight_decay=0.0001, workers=6, world_size=1)
Loading data
Took 0.02809906005859375
Creating data loaders
dataset_train:9000, dataset_test:1000
Creating model
Spikeformer(
  (model): spikeformer(
    (patch_embed): Tokenizer(
      (conv_layers): Sequential(
        (0): SEWBlock(
          (residual_function): Sequential(
            (0): Sequential(
              (0): SeqToANNContainer(
                (0): Conv2d(2, 64, kernel_size=(3, 3), stride=(2, 2), padding=(1, 1), bias=False)
                (1): BatchNorm2d(64, eps=1e-05, momentum=0.1, affine=True, track_running_stats=True)
              )
              (1): MultiStepParametricLIFNode(
                v_threshold=1.0, v_reset=0.0, detach_reset=True, tau=2.0, backend=torch
                (surrogate_function): Sigmoid(alpha=4.0, spiking=True)
              )
            )
            (1): Sequential(
              (0): SeqToANNContainer(
                (0): Conv2d(64, 64, kernel_size=(3, 3), stride=(1, 1), padding=(1, 1), bias=False)
                (1): BatchNorm2d(64, eps=1e-05, momentum=0.1, affine=True, track_running_stats=True)
              )
              (1): MultiStepParametricLIFNode(
                v_threshold=1.0, v_reset=0.0, detach_reset=True, tau=2.0, backend=torch
                (surrogate_function): Sigmoid(alpha=4.0, spiking=True)
              )
            )
          )
          (shortcut): Sequential(
            (0): SeqToANNContainer(
              (0): AvgPool2d(kernel_size=(2, 2), stride=(2, 2), padding=0)
            )
            (1): Sequential(
              (0): SeqToANNContainer(
                (0): Conv2d(2, 64, kernel_size=(1, 1), stride=(1, 1), bias=False)
                (1): BatchNorm2d(64, eps=1e-05, momentum=0.1, affine=True, track_running_stats=True)
              )
              (1): MultiStepParametricLIFNode(
                v_threshold=1.0, v_reset=0.0, detach_reset=True, tau=2.0, backend=torch
                (surrogate_function): Sigmoid(alpha=4.0, spiking=True)
              )
            )
          )
        )
        (1): SEWBlock(
          (residual_function): Sequential(
            (0): Sequential(
              (0): SeqToANNContainer(
                (0): Conv2d(64, 64, kernel_size=(3, 3), stride=(1, 1), padding=(1, 1), bias=False)
                (1): BatchNorm2d(64, eps=1e-05, momentum=0.1, affine=True, track_running_stats=True)
              )
              (1): MultiStepParametricLIFNode(
                v_threshold=1.0, v_reset=0.0, detach_reset=True, tau=2.0, backend=torch
                (surrogate_function): Sigmoid(alpha=4.0, spiking=True)
              )
            )
            (1): Sequential(
              (0): SeqToANNContainer(
                (0): Conv2d(64, 64, kernel_size=(3, 3), stride=(1, 1), padding=(1, 1), bias=False)
                (1): BatchNorm2d(64, eps=1e-05, momentum=0.1, affine=True, track_running_stats=True)
              )
              (1): MultiStepParametricLIFNode(
                v_threshold=1.0, v_reset=0.0, detach_reset=True, tau=2.0, backend=torch
                (surrogate_function): Sigmoid(alpha=4.0, spiking=True)
              )
            )
          )
          (shortcut): Sequential()
        )
        (2): SEWBlock(
          (residual_function): Sequential(
            (0): Sequential(
              (0): SeqToANNContainer(
                (0): Conv2d(64, 128, kernel_size=(3, 3), stride=(2, 2), padding=(1, 1), bias=False)
                (1): BatchNorm2d(128, eps=1e-05, momentum=0.1, affine=True, track_running_stats=True)
              )
              (1): MultiStepParametricLIFNode(
                v_threshold=1.0, v_reset=0.0, detach_reset=True, tau=2.0, backend=torch
                (surrogate_function): Sigmoid(alpha=4.0, spiking=True)
              )
            )
            (1): Sequential(
              (0): SeqToANNContainer(
                (0): Conv2d(128, 128, kernel_size=(3, 3), stride=(1, 1), padding=(1, 1), bias=False)
                (1): BatchNorm2d(128, eps=1e-05, momentum=0.1, affine=True, track_running_stats=True)
              )
              (1): MultiStepParametricLIFNode(
                v_threshold=1.0, v_reset=0.0, detach_reset=True, tau=2.0, backend=torch
                (surrogate_function): Sigmoid(alpha=4.0, spiking=True)
              )
            )
          )
          (shortcut): Sequential(
            (0): SeqToANNContainer(
              (0): AvgPool2d(kernel_size=(2, 2), stride=(2, 2), padding=0)
            )
            (1): Sequential(
              (0): SeqToANNContainer(
                (0): Conv2d(64, 128, kernel_size=(1, 1), stride=(1, 1), bias=False)
                (1): BatchNorm2d(128, eps=1e-05, momentum=0.1, affine=True, track_running_stats=True)
              )
              (1): MultiStepParametricLIFNode(
                v_threshold=1.0, v_reset=0.0, detach_reset=True, tau=2.0, backend=torch
                (surrogate_function): Sigmoid(alpha=4.0, spiking=True)
              )
            )
          )
        )
        (3): SEWBlock(
          (residual_function): Sequential(
            (0): Sequential(
              (0): SeqToANNContainer(
                (0): Conv2d(128, 128, kernel_size=(3, 3), stride=(1, 1), padding=(1, 1), bias=False)
                (1): BatchNorm2d(128, eps=1e-05, momentum=0.1, affine=True, track_running_stats=True)
              )
              (1): MultiStepParametricLIFNode(
                v_threshold=1.0, v_reset=0.0, detach_reset=True, tau=2.0, backend=torch
                (surrogate_function): Sigmoid(alpha=4.0, spiking=True)
              )
            )
            (1): Sequential(
              (0): SeqToANNContainer(
                (0): Conv2d(128, 128, kernel_size=(3, 3), stride=(1, 1), padding=(1, 1), bias=False)
                (1): BatchNorm2d(128, eps=1e-05, momentum=0.1, affine=True, track_running_stats=True)
              )
              (1): MultiStepParametricLIFNode(
                v_threshold=1.0, v_reset=0.0, detach_reset=True, tau=2.0, backend=torch
                (surrogate_function): Sigmoid(alpha=4.0, spiking=True)
              )
            )
          )
          (shortcut): Sequential()
        )
        (4): SEWBlock(
          (residual_function): Sequential(
            (0): Sequential(
              (0): SeqToANNContainer(
                (0): Conv2d(128, 256, kernel_size=(3, 3), stride=(2, 2), padding=(1, 1), bias=False)
                (1): BatchNorm2d(256, eps=1e-05, momentum=0.1, affine=True, track_running_stats=True)
              )
              (1): MultiStepParametricLIFNode(
                v_threshold=1.0, v_reset=0.0, detach_reset=True, tau=2.0, backend=torch
                (surrogate_function): Sigmoid(alpha=4.0, spiking=True)
              )
            )
            (1): Sequential(
              (0): SeqToANNContainer(
                (0): Conv2d(256, 256, kernel_size=(3, 3), stride=(1, 1), padding=(1, 1), bias=False)
                (1): BatchNorm2d(256, eps=1e-05, momentum=0.1, affine=True, track_running_stats=True)
              )
              (1): MultiStepParametricLIFNode(
                v_threshold=1.0, v_reset=0.0, detach_reset=True, tau=2.0, backend=torch
                (surrogate_function): Sigmoid(alpha=4.0, spiking=True)
              )
            )
          )
          (shortcut): Sequential(
            (0): SeqToANNContainer(
              (0): AvgPool2d(kernel_size=(2, 2), stride=(2, 2), padding=0)
            )
            (1): Sequential(
              (0): SeqToANNContainer(
                (0): Conv2d(128, 256, kernel_size=(1, 1), stride=(1, 1), bias=False)
                (1): BatchNorm2d(256, eps=1e-05, momentum=0.1, affine=True, track_running_stats=True)
              )
              (1): MultiStepParametricLIFNode(
                v_threshold=1.0, v_reset=0.0, detach_reset=True, tau=2.0, backend=torch
                (surrogate_function): Sigmoid(alpha=4.0, spiking=True)
              )
            )
          )
        )
        (5): SEWBlock(
          (residual_function): Sequential(
            (0): Sequential(
              (0): SeqToANNContainer(
                (0): Conv2d(256, 256, kernel_size=(3, 3), stride=(1, 1), padding=(1, 1), bias=False)
                (1): BatchNorm2d(256, eps=1e-05, momentum=0.1, affine=True, track_running_stats=True)
              )
              (1): MultiStepParametricLIFNode(
                v_threshold=1.0, v_reset=0.0, detach_reset=True, tau=2.0, backend=torch
                (surrogate_function): Sigmoid(alpha=4.0, spiking=True)
              )
            )
            (1): Sequential(
              (0): SeqToANNContainer(
                (0): Conv2d(256, 256, kernel_size=(3, 3), stride=(1, 1), padding=(1, 1), bias=False)
                (1): BatchNorm2d(256, eps=1e-05, momentum=0.1, affine=True, track_running_stats=True)
              )
              (1): MultiStepParametricLIFNode(
                v_threshold=1.0, v_reset=0.0, detach_reset=True, tau=2.0, backend=torch
                (surrogate_function): Sigmoid(alpha=4.0, spiking=True)
              )
            )
          )
          (shortcut): Sequential()
        )
      )
      (flattener): Flatten(start_dim=2, end_dim=3)
    )
    (pos_drop): Dropout(p=0.0, inplace=False)
    (time_drop): Dropout(p=0.0, inplace=False)
    (blocks): ModuleList(
      (0): Block(
        (norm1): LayerNorm((256,), eps=1e-06, elementwise_affine=True)
        (attn): Attention(
          (qkv): Linear(in_features=256, out_features=768, bias=False)
          (proj): Linear(in_features=256, out_features=256, bias=True)
          (proj_drop): Dropout(p=0.0, inplace=False)
          (attn_drop): Dropout(p=0.0, inplace=False)
        )
        (temporal_norm1): LayerNorm((256,), eps=1e-06, elementwise_affine=True)
        (temporal_attn): Attention(
          (qkv): Linear(in_features=256, out_features=768, bias=False)
          (proj): Linear(in_features=256, out_features=256, bias=True)
          (proj_drop): Dropout(p=0.0, inplace=False)
          (attn_drop): Dropout(p=0.0, inplace=False)
        )
        (temporal_fc): Linear(in_features=256, out_features=256, bias=True)
        (drop_path): Identity()
        (norm2): LayerNorm((256,), eps=1e-06, elementwise_affine=True)
        (mlp): Mlp(
          (mlp): Sequential(
            (0): SeqToANNContainer(
              (0): Linear(in_features=256, out_features=512, bias=True)
            )
            (1): MultiStepParametricLIFNode(
              v_threshold=1.0, v_reset=0.0, detach_reset=True, tau=2.0, backend=torch
              (surrogate_function): Sigmoid(alpha=4.0, spiking=True)
            )
            (2): SeqToANNContainer(
              (0): Linear(in_features=512, out_features=256, bias=True)
              (1): Dropout(p=0.0, inplace=False)
            )
          )
        )
      )
      (1): Block(
        (norm1): LayerNorm((256,), eps=1e-06, elementwise_affine=True)
        (attn): Attention(
          (qkv): Linear(in_features=256, out_features=768, bias=False)
          (proj): Linear(in_features=256, out_features=256, bias=True)
          (proj_drop): Dropout(p=0.0, inplace=False)
          (attn_drop): Dropout(p=0.0, inplace=False)
        )
        (temporal_norm1): LayerNorm((256,), eps=1e-06, elementwise_affine=True)
        (temporal_attn): Attention(
          (qkv): Linear(in_features=256, out_features=768, bias=False)
          (proj): Linear(in_features=256, out_features=256, bias=True)
          (proj_drop): Dropout(p=0.0, inplace=False)
          (attn_drop): Dropout(p=0.0, inplace=False)
        )
        (temporal_fc): Linear(in_features=256, out_features=256, bias=True)
        (drop_path): DropPath()
        (norm2): LayerNorm((256,), eps=1e-06, elementwise_affine=True)
        (mlp): Mlp(
          (mlp): Sequential(
            (0): SeqToANNContainer(
              (0): Linear(in_features=256, out_features=512, bias=True)
            )
            (1): MultiStepParametricLIFNode(
              v_threshold=1.0, v_reset=0.0, detach_reset=True, tau=2.0, backend=torch
              (surrogate_function): Sigmoid(alpha=4.0, spiking=True)
            )
            (2): SeqToANNContainer(
              (0): Linear(in_features=512, out_features=256, bias=True)
              (1): Dropout(p=0.0, inplace=False)
            )
          )
        )
      )
      (2): Block(
        (norm1): LayerNorm((256,), eps=1e-06, elementwise_affine=True)
        (attn): Attention(
          (qkv): Linear(in_features=256, out_features=768, bias=False)
          (proj): Linear(in_features=256, out_features=256, bias=True)
          (proj_drop): Dropout(p=0.0, inplace=False)
          (attn_drop): Dropout(p=0.0, inplace=False)
        )
        (temporal_norm1): LayerNorm((256,), eps=1e-06, elementwise_affine=True)
        (temporal_attn): Attention(
          (qkv): Linear(in_features=256, out_features=768, bias=False)
          (proj): Linear(in_features=256, out_features=256, bias=True)
          (proj_drop): Dropout(p=0.0, inplace=False)
          (attn_drop): Dropout(p=0.0, inplace=False)
        )
        (temporal_fc): Linear(in_features=256, out_features=256, bias=True)
        (drop_path): DropPath()
        (norm2): LayerNorm((256,), eps=1e-06, elementwise_affine=True)
        (mlp): Mlp(
          (mlp): Sequential(
            (0): SeqToANNContainer(
              (0): Linear(in_features=256, out_features=512, bias=True)
            )
            (1): MultiStepParametricLIFNode(
              v_threshold=1.0, v_reset=0.0, detach_reset=True, tau=2.0, backend=torch
              (surrogate_function): Sigmoid(alpha=4.0, spiking=True)
            )
            (2): SeqToANNContainer(
              (0): Linear(in_features=512, out_features=256, bias=True)
              (1): Dropout(p=0.0, inplace=False)
            )
          )
        )
      )
      (3): Block(
        (norm1): LayerNorm((256,), eps=1e-06, elementwise_affine=True)
        (attn): Attention(
          (qkv): Linear(in_features=256, out_features=768, bias=False)
          (proj): Linear(in_features=256, out_features=256, bias=True)
          (proj_drop): Dropout(p=0.0, inplace=False)
          (attn_drop): Dropout(p=0.0, inplace=False)
        )
        (temporal_norm1): LayerNorm((256,), eps=1e-06, elementwise_affine=True)
        (temporal_attn): Attention(
          (qkv): Linear(in_features=256, out_features=768, bias=False)
          (proj): Linear(in_features=256, out_features=256, bias=True)
          (proj_drop): Dropout(p=0.0, inplace=False)
          (attn_drop): Dropout(p=0.0, inplace=False)
        )
        (temporal_fc): Linear(in_features=256, out_features=256, bias=True)
        (drop_path): DropPath()
        (norm2): LayerNorm((256,), eps=1e-06, elementwise_affine=True)
        (mlp): Mlp(
          (mlp): Sequential(
            (0): SeqToANNContainer(
              (0): Linear(in_features=256, out_features=512, bias=True)
            )
            (1): MultiStepParametricLIFNode(
              v_threshold=1.0, v_reset=0.0, detach_reset=True, tau=2.0, backend=torch
              (surrogate_function): Sigmoid(alpha=4.0, spiking=True)
            )
            (2): SeqToANNContainer(
              (0): Linear(in_features=512, out_features=256, bias=True)
              (1): Dropout(p=0.0, inplace=False)
            )
          )
        )
      )
      (4): Block(
        (norm1): LayerNorm((256,), eps=1e-06, elementwise_affine=True)
        (attn): Attention(
          (qkv): Linear(in_features=256, out_features=768, bias=False)
          (proj): Linear(in_features=256, out_features=256, bias=True)
          (proj_drop): Dropout(p=0.0, inplace=False)
          (attn_drop): Dropout(p=0.0, inplace=False)
        )
        (temporal_norm1): LayerNorm((256,), eps=1e-06, elementwise_affine=True)
        (temporal_attn): Attention(
          (qkv): Linear(in_features=256, out_features=768, bias=False)
          (proj): Linear(in_features=256, out_features=256, bias=True)
          (proj_drop): Dropout(p=0.0, inplace=False)
          (attn_drop): Dropout(p=0.0, inplace=False)
        )
        (temporal_fc): Linear(in_features=256, out_features=256, bias=True)
        (drop_path): DropPath()
        (norm2): LayerNorm((256,), eps=1e-06, elementwise_affine=True)
        (mlp): Mlp(
          (mlp): Sequential(
            (0): SeqToANNContainer(
              (0): Linear(in_features=256, out_features=512, bias=True)
            )
            (1): MultiStepParametricLIFNode(
              v_threshold=1.0, v_reset=0.0, detach_reset=True, tau=2.0, backend=torch
              (surrogate_function): Sigmoid(alpha=4.0, spiking=True)
            )
            (2): SeqToANNContainer(
              (0): Linear(in_features=512, out_features=256, bias=True)
              (1): Dropout(p=0.0, inplace=False)
            )
          )
        )
      )
      (5): Block(
        (norm1): LayerNorm((256,), eps=1e-06, elementwise_affine=True)
        (attn): Attention(
          (qkv): Linear(in_features=256, out_features=768, bias=False)
          (proj): Linear(in_features=256, out_features=256, bias=True)
          (proj_drop): Dropout(p=0.0, inplace=False)
          (attn_drop): Dropout(p=0.0, inplace=False)
        )
        (temporal_norm1): LayerNorm((256,), eps=1e-06, elementwise_affine=True)
        (temporal_attn): Attention(
          (qkv): Linear(in_features=256, out_features=768, bias=False)
          (proj): Linear(in_features=256, out_features=256, bias=True)
          (proj_drop): Dropout(p=0.0, inplace=False)
          (attn_drop): Dropout(p=0.0, inplace=False)
        )
        (temporal_fc): Linear(in_features=256, out_features=256, bias=True)
        (drop_path): DropPath()
        (norm2): LayerNorm((256,), eps=1e-06, elementwise_affine=True)
        (mlp): Mlp(
          (mlp): Sequential(
            (0): SeqToANNContainer(
              (0): Linear(in_features=256, out_features=512, bias=True)
            )
            (1): MultiStepParametricLIFNode(
              v_threshold=1.0, v_reset=0.0, detach_reset=True, tau=2.0, backend=torch
              (surrogate_function): Sigmoid(alpha=4.0, spiking=True)
            )
            (2): SeqToANNContainer(
              (0): Linear(in_features=512, out_features=256, bias=True)
              (1): Dropout(p=0.0, inplace=False)
            )
          )
        )
      )
      (6): Block(
        (norm1): LayerNorm((256,), eps=1e-06, elementwise_affine=True)
        (attn): Attention(
          (qkv): Linear(in_features=256, out_features=768, bias=False)
          (proj): Linear(in_features=256, out_features=256, bias=True)
          (proj_drop): Dropout(p=0.0, inplace=False)
          (attn_drop): Dropout(p=0.0, inplace=False)
        )
        (temporal_norm1): LayerNorm((256,), eps=1e-06, elementwise_affine=True)
        (temporal_attn): Attention(
          (qkv): Linear(in_features=256, out_features=768, bias=False)
          (proj): Linear(in_features=256, out_features=256, bias=True)
          (proj_drop): Dropout(p=0.0, inplace=False)
          (attn_drop): Dropout(p=0.0, inplace=False)
        )
        (temporal_fc): Linear(in_features=256, out_features=256, bias=True)
        (drop_path): DropPath()
        (norm2): LayerNorm((256,), eps=1e-06, elementwise_affine=True)
        (mlp): Mlp(
          (mlp): Sequential(
            (0): SeqToANNContainer(
              (0): Linear(in_features=256, out_features=512, bias=True)
            )
            (1): MultiStepParametricLIFNode(
              v_threshold=1.0, v_reset=0.0, detach_reset=True, tau=2.0, backend=torch
              (surrogate_function): Sigmoid(alpha=4.0, spiking=True)
            )
            (2): SeqToANNContainer(
              (0): Linear(in_features=512, out_features=256, bias=True)
              (1): Dropout(p=0.0, inplace=False)
            )
          )
        )
      )
    )
    (norm): LayerNorm((256,), eps=1e-06, elementwise_affine=True)
    (attention_pool): Linear(in_features=256, out_features=1, bias=True)
    (head): Linear(in_features=256, out_features=10, bias=True)
  )
)
Preparing loss function
Using label smothing
Preparing optimizer
Using Adam
Preparing scaler
Preparing learning rate scheduler
Warming up
Preparing tensorboard logging
purge_step_train=0, purge_step_te=0
Start training
Epoch: [0]  [  0/282]  eta: 0:09:51  lr: 0.0  img/s: 52.02616624777309  loss: 2.3245 (2.3245)  acc1: 6.2500 (6.2500)  acc5: 46.8750 (46.8750)  time: 2.0979  data: 1.4828  max mem: 11216
…
