…
max_test_acc1.pth', start_epoch=93, step_between_clips=1, sync_bn=True, tb=True, test_only=False, video=False, warmup=-1, weight_decay=0.0001, workers=14, world_size=8)
Loading data
using hflip
Auto Aug
using random erase
Took 1.8591840267181396
Creating data loaders
dataset_train:1281167, dataset_test:50000
Creating model
Spikeformer(
  (model): spikeformer(
    (patch_embed): Tokenizer(
      (conv_layers): Sequential(
        (0): Identity()
        (1): SEWBlock(
          (residual_function): Sequential(
            (0): Sequential(
              (0): SeqToANNContainer(
                (0): Conv2d(3, 64, kernel_size=(3, 3), stride=(2, 2), padding=(1, 1), bias=False)
                (1): BatchNorm2d(64, eps=1e-05, momentum=0.1, affine=True, track_running_stats=True)
              )
              (1): MultiStepParametricLIAFNode(
                v_threshold=1.0, v_reset=0.0, detach_reset=True, tau=2.0, backend=torch
                (surrogate_function): Sigmoid(alpha=4.0, spiking=True)
              )
            )
            (1): Sequential(
              (0): SeqToANNContainer(
                (0): Conv2d(64, 64, kernel_size=(3, 3), stride=(1, 1), padding=(1, 1), bias=False)
                (1): BatchNorm2d(64, eps=1e-05, momentum=0.1, affine=True, track_running_stats=True)
              )
              (1): MultiStepParametricLIAFNode(
                v_threshold=1.0, v_reset=0.0, detach_reset=True, tau=2.0, backend=torch
                (surrogate_function): Sigmoid(alpha=4.0, spiking=True)
              )
            )
          )
          (shortcut): Sequential(
            (0): SeqToANNContainer(
              (0): AvgPool2d(kernel_size=(2, 2), stride=(2, 2), padding=0)
            )
            (1): Sequential(
              (0): SeqToANNContainer(
                (0): Conv2d(3, 64, kernel_size=(1, 1), stride=(1, 1), bias=False)
                (1): BatchNorm2d(64, eps=1e-05, momentum=0.1, affine=True, track_running_stats=True)
              )
              (1): MultiStepParametricLIAFNode(
                v_threshold=1.0, v_reset=0.0, detach_reset=True, tau=2.0, backend=torch
                (surrogate_function): Sigmoid(alpha=4.0, spiking=True)
              )
            )
          )
        )
        (2): SEWBlock(
          (residual_function): Sequential(
            (0): Sequential(
              (0): SeqToANNContainer(
                (0): Conv2d(64, 64, kernel_size=(3, 3), stride=(1, 1), padding=(1, 1), bias=False)
                (1): BatchNorm2d(64, eps=1e-05, momentum=0.1, affine=True, track_running_stats=True)
              )
              (1): MultiStepParametricLIAFNode(
                v_threshold=1.0, v_reset=0.0, detach_reset=True, tau=2.0, backend=torch
                (surrogate_function): Sigmoid(alpha=4.0, spiking=True)
              )
            )
            (1): Sequential(
              (0): SeqToANNContainer(
                (0): Conv2d(64, 64, kernel_size=(3, 3), stride=(1, 1), padding=(1, 1), bias=False)
                (1): BatchNorm2d(64, eps=1e-05, momentum=0.1, affine=True, track_running_stats=True)
              )
              (1): MultiStepParametricLIAFNode(
                v_threshold=1.0, v_reset=0.0, detach_reset=True, tau=2.0, backend=torch
                (surrogate_function): Sigmoid(alpha=4.0, spiking=True)
              )
            )
          )
          (shortcut): Sequential()
        )
        (3): SEWBlock(
          (residual_function): Sequential(
            (0): Sequential(
              (0): SeqToANNContainer(
                (0): Conv2d(64, 128, kernel_size=(3, 3), stride=(2, 2), padding=(1, 1), bias=False)
                (1): BatchNorm2d(128, eps=1e-05, momentum=0.1, affine=True, track_running_stats=True)
              )
              (1): MultiStepParametricLIAFNode(
                v_threshold=1.0, v_reset=0.0, detach_reset=True, tau=2.0, backend=torch
                (surrogate_function): Sigmoid(alpha=4.0, spiking=True)
              )
            )
            (1): Sequential(
              (0): SeqToANNContainer(
                (0): Conv2d(128, 128, kernel_size=(3, 3), stride=(1, 1), padding=(1, 1), bias=False)
                (1): BatchNorm2d(128, eps=1e-05, momentum=0.1, affine=True, track_running_stats=True)
              )
              (1): MultiStepParametricLIAFNode(
                v_threshold=1.0, v_reset=0.0, detach_reset=True, tau=2.0, backend=torch
                (surrogate_function): Sigmoid(alpha=4.0, spiking=True)
              )
            )
          )
          (shortcut): Sequential(
            (0): SeqToANNContainer(
              (0): AvgPool2d(kernel_size=(2, 2), stride=(2, 2), padding=0)
            )
            (1): Sequential(
              (0): SeqToANNContainer(
                (0): Conv2d(64, 128, kernel_size=(1, 1), stride=(1, 1), bias=False)
                (1): BatchNorm2d(128, eps=1e-05, momentum=0.1, affine=True, track_running_stats=True)
              )
              (1): MultiStepParametricLIAFNode(
                v_threshold=1.0, v_reset=0.0, detach_reset=True, tau=2.0, backend=torch
                (surrogate_function): Sigmoid(alpha=4.0, spiking=True)
              )
            )
          )
        )
        (4): SEWBlock(
          (residual_function): Sequential(
            (0): Sequential(
              (0): SeqToANNContainer(
                (0): Conv2d(128, 128, kernel_size=(3, 3), stride=(1, 1), padding=(1, 1), bias=False)
                (1): BatchNorm2d(128, eps=1e-05, momentum=0.1, affine=True, track_running_stats=True)
              )
              (1): MultiStepParametricLIAFNode(
                v_threshold=1.0, v_reset=0.0, detach_reset=True, tau=2.0, backend=torch
                (surrogate_function): Sigmoid(alpha=4.0, spiking=True)
              )
            )
            (1): Sequential(
              (0): SeqToANNContainer(
                (0): Conv2d(128, 128, kernel_size=(3, 3), stride=(1, 1), padding=(1, 1), bias=False)
                (1): BatchNorm2d(128, eps=1e-05, momentum=0.1, affine=True, track_running_stats=True)
              )
              (1): MultiStepParametricLIAFNode(
                v_threshold=1.0, v_reset=0.0, detach_reset=True, tau=2.0, backend=torch
                (surrogate_function): Sigmoid(alpha=4.0, spiking=True)
              )
            )
          )
          (shortcut): Sequential()
        )
        (5): SEWBlock(
          (residual_function): Sequential(
            (0): Sequential(
              (0): SeqToANNContainer(
                (0): Conv2d(128, 256, kernel_size=(3, 3), stride=(2, 2), padding=(1, 1), bias=False)
                (1): BatchNorm2d(256, eps=1e-05, momentum=0.1, affine=True, track_running_stats=True)
              )
              (1): MultiStepParametricLIAFNode(
                v_threshold=1.0, v_reset=0.0, detach_reset=True, tau=2.0, backend=torch
                (surrogate_function): Sigmoid(alpha=4.0, spiking=True)
              )
            )
            (1): Sequential(
              (0): SeqToANNContainer(
                (0): Conv2d(256, 256, kernel_size=(3, 3), stride=(1, 1), padding=(1, 1), bias=False)
                (1): BatchNorm2d(256, eps=1e-05, momentum=0.1, affine=True, track_running_stats=True)
              )
              (1): MultiStepParametricLIAFNode(
                v_threshold=1.0, v_reset=0.0, detach_reset=True, tau=2.0, backend=torch
                (surrogate_function): Sigmoid(alpha=4.0, spiking=True)
              )
            )
          )
          (shortcut): Sequential(
            (0): SeqToANNContainer(
              (0): AvgPool2d(kernel_size=(2, 2), stride=(2, 2), padding=0)
            )
            (1): Sequential(
              (0): SeqToANNContainer(
                (0): Conv2d(128, 256, kernel_size=(1, 1), stride=(1, 1), bias=False)
                (1): BatchNorm2d(256, eps=1e-05, momentum=0.1, affine=True, track_running_stats=True)
              )
              (1): MultiStepParametricLIAFNode(
                v_threshold=1.0, v_reset=0.0, detach_reset=True, tau=2.0, backend=torch
                (surrogate_function): Sigmoid(alpha=4.0, spiking=True)
              )
            )
          )
        )
        (6): SEWBlock(
          (residual_function): Sequential(
            (0): Sequential(
              (0): SeqToANNContainer(
                (0): Conv2d(256, 256, kernel_size=(3, 3), stride=(1, 1), padding=(1, 1), bias=False)
                (1): BatchNorm2d(256, eps=1e-05, momentum=0.1, affine=True, track_running_stats=True)
              )
              (1): MultiStepParametricLIAFNode(
                v_threshold=1.0, v_reset=0.0, detach_reset=True, tau=2.0, backend=torch
                (surrogate_function): Sigmoid(alpha=4.0, spiking=True)
              )
            )
            (1): Sequential(
              (0): SeqToANNContainer(
                (0): Conv2d(256, 256, kernel_size=(3, 3), stride=(1, 1), padding=(1, 1), bias=False)
                (1): BatchNorm2d(256, eps=1e-05, momentum=0.1, affine=True, track_running_stats=True)
              )
              (1): MultiStepParametricLIAFNode(
                v_threshold=1.0, v_reset=0.0, detach_reset=True, tau=2.0, backend=torch
                (surrogate_function): Sigmoid(alpha=4.0, spiking=True)
              )
            )
          )
          (shortcut): Sequential()
        )
        (7): SEWBlock(
          (residual_function): Sequential(
            (0): Sequential(
              (0): SeqToANNContainer(
                (0): Conv2d(256, 512, kernel_size=(3, 3), stride=(2, 2), padding=(1, 1), bias=False)
                (1): BatchNorm2d(512, eps=1e-05, momentum=0.1, affine=True, track_running_stats=True)
              )
              (1): MultiStepParametricLIAFNode(
                v_threshold=1.0, v_reset=0.0, detach_reset=True, tau=2.0, backend=torch
                (surrogate_function): Sigmoid(alpha=4.0, spiking=True)
              )
            )
            (1): Sequential(
              (0): SeqToANNContainer(
                (0): Conv2d(512, 512, kernel_size=(3, 3), stride=(1, 1), padding=(1, 1), bias=False)
                (1): BatchNorm2d(512, eps=1e-05, momentum=0.1, affine=True, track_running_stats=True)
              )
              (1): MultiStepParametricLIAFNode(
                v_threshold=1.0, v_reset=0.0, detach_reset=True, tau=2.0, backend=torch
                (surrogate_function): Sigmoid(alpha=4.0, spiking=True)
              )
            )
          )
          (shortcut): Sequential(
            (0): SeqToANNContainer(
              (0): AvgPool2d(kernel_size=(2, 2), stride=(2, 2), padding=0)
            )
            (1): Sequential(
              (0): SeqToANNContainer(
                (0): Conv2d(256, 512, kernel_size=(1, 1), stride=(1, 1), bias=False)
                (1): BatchNorm2d(512, eps=1e-05, momentum=0.1, affine=True, track_running_stats=True)
              )
              (1): MultiStepParametricLIAFNode(
                v_threshold=1.0, v_reset=0.0, detach_reset=True, tau=2.0, backend=torch
                (surrogate_function): Sigmoid(alpha=4.0, spiking=True)
              )
            )
          )
        )
        (8): SEWBlock(
          (residual_function): Sequential(
            (0): Sequential(
              (0): SeqToANNContainer(
                (0): Conv2d(512, 512, kernel_size=(3, 3), stride=(1, 1), padding=(1, 1), bias=False)
                (1): BatchNorm2d(512, eps=1e-05, momentum=0.1, affine=True, track_running_stats=True)
              )
              (1): MultiStepParametricLIAFNode(
                v_threshold=1.0, v_reset=0.0, detach_reset=True, tau=2.0, backend=torch
                (surrogate_function): Sigmoid(alpha=4.0, spiking=True)
              )
            )
            (1): Sequential(
              (0): SeqToANNContainer(
                (0): Conv2d(512, 512, kernel_size=(3, 3), stride=(1, 1), padding=(1, 1), bias=False)
                (1): BatchNorm2d(512, eps=1e-05, momentum=0.1, affine=True, track_running_stats=True)
              )
              (1): MultiStepParametricLIAFNode(
                v_threshold=1.0, v_reset=0.0, detach_reset=True, tau=2.0, backend=torch
                (surrogate_function): Sigmoid(alpha=4.0, spiking=True)
              )
            )
          )
          (shortcut): Sequential()
        )
      )
      (flattener): Flatten(start_dim=2, end_dim=3)
    )
    (pos_drop): Dropout(p=0.0, inplace=False)
    (time_drop): Dropout(p=0.0, inplace=False)
    (blocks): ModuleList(
      (0): Block(
        (norm1): LayerNorm((512,), eps=1e-06, elementwise_affine=True)
        (attn): Attention(
          (qkv): Linear(in_features=512, out_features=1536, bias=False)
          (proj): Linear(in_features=512, out_features=512, bias=True)
          (proj_drop): Dropout(p=0.0, inplace=False)
          (attn_drop): Dropout(p=0.0, inplace=False)
        )
        (temporal_norm1): LayerNorm((512,), eps=1e-06, elementwise_affine=True)
        (temporal_attn): Attention(
          (qkv): Linear(in_features=512, out_features=1536, bias=False)
          (proj): Linear(in_features=512, out_features=512, bias=True)
          (proj_drop): Dropout(p=0.0, inplace=False)
          (attn_drop): Dropout(p=0.0, inplace=False)
        )
        (temporal_fc): Linear(in_features=512, out_features=512, bias=True)
        (drop_path): Identity()
        (norm2): LayerNorm((512,), eps=1e-06, elementwise_affine=True)
        (mlp): Mlp(
          (mlp): Sequential(
            (0): SeqToANNContainer(
              (0): Linear(in_features=512, out_features=1536, bias=True)
            )
            (1): MultiStepParametricLIAFNode(
              v_threshold=1.0, v_reset=0.0, detach_reset=True, tau=2.0, backend=torch
              (surrogate_function): Sigmoid(alpha=4.0, spiking=True)
            )
            (2): SeqToANNContainer(
              (0): Linear(in_features=1536, out_features=512, bias=True)
              (1): Dropout(p=0.0, inplace=False)
            )
          )
        )
      )
      (1): Block(
        (norm1): LayerNorm((512,), eps=1e-06, elementwise_affine=True)
        (attn): Attention(
          (qkv): Linear(in_features=512, out_features=1536, bias=False)
          (proj): Linear(in_features=512, out_features=512, bias=True)
          (proj_drop): Dropout(p=0.0, inplace=False)
          (attn_drop): Dropout(p=0.0, inplace=False)
        )
        (temporal_norm1): LayerNorm((512,), eps=1e-06, elementwise_affine=True)
        (temporal_attn): Attention(
          (qkv): Linear(in_features=512, out_features=1536, bias=False)
          (proj): Linear(in_features=512, out_features=512, bias=True)
          (proj_drop): Dropout(p=0.0, inplace=False)
          (attn_drop): Dropout(p=0.0, inplace=False)
        )
        (temporal_fc): Linear(in_features=512, out_features=512, bias=True)
        (drop_path): DropPath()
        (norm2): LayerNorm((512,), eps=1e-06, elementwise_affine=True)
        (mlp): Mlp(
          (mlp): Sequential(
            (0): SeqToANNContainer(
              (0): Linear(in_features=512, out_features=1536, bias=True)
            )
            (1): MultiStepParametricLIAFNode(
              v_threshold=1.0, v_reset=0.0, detach_reset=True, tau=2.0, backend=torch
              (surrogate_function): Sigmoid(alpha=4.0, spiking=True)
            )
            (2): SeqToANNContainer(
              (0): Linear(in_features=1536, out_features=512, bias=True)
              (1): Dropout(p=0.0, inplace=False)
            )
          )
        )
      )
      (2): Block(
        (norm1): LayerNorm((512,), eps=1e-06, elementwise_affine=True)
        (attn): Attention(
          (qkv): Linear(in_features=512, out_features=1536, bias=False)
          (proj): Linear(in_features=512, out_features=512, bias=True)
          (proj_drop): Dropout(p=0.0, inplace=False)
          (attn_drop): Dropout(p=0.0, inplace=False)
        )
        (temporal_norm1): LayerNorm((512,), eps=1e-06, elementwise_affine=True)
        (temporal_attn): Attention(
          (qkv): Linear(in_features=512, out_features=1536, bias=False)
          (proj): Linear(in_features=512, out_features=512, bias=True)
          (proj_drop): Dropout(p=0.0, inplace=False)
          (attn_drop): Dropout(p=0.0, inplace=False)
        )
        (temporal_fc): Linear(in_features=512, out_features=512, bias=True)
        (drop_path): DropPath()
        (norm2): LayerNorm((512,), eps=1e-06, elementwise_affine=True)
        (mlp): Mlp(
          (mlp): Sequential(
            (0): SeqToANNContainer(
              (0): Linear(in_features=512, out_features=1536, bias=True)
            )
            (1): MultiStepParametricLIAFNode(
              v_threshold=1.0, v_reset=0.0, detach_reset=True, tau=2.0, backend=torch
              (surrogate_function): Sigmoid(alpha=4.0, spiking=True)
            )
            (2): SeqToANNContainer(
              (0): Linear(in_features=1536, out_features=512, bias=True)
              (1): Dropout(p=0.0, inplace=False)
            )
          )
        )
      )
      (3): Block(
        (norm1): LayerNorm((512,), eps=1e-06, elementwise_affine=True)
        (attn): Attention(
          (qkv): Linear(in_features=512, out_features=1536, bias=False)
          (proj): Linear(in_features=512, out_features=512, bias=True)
          (proj_drop): Dropout(p=0.0, inplace=False)
          (attn_drop): Dropout(p=0.0, inplace=False)
        )
        (temporal_norm1): LayerNorm((512,), eps=1e-06, elementwise_affine=True)
        (temporal_attn): Attention(
          (qkv): Linear(in_features=512, out_features=1536, bias=False)
          (proj): Linear(in_features=512, out_features=512, bias=True)
          (proj_drop): Dropout(p=0.0, inplace=False)
          (attn_drop): Dropout(p=0.0, inplace=False)
        )
        (temporal_fc): Linear(in_features=512, out_features=512, bias=True)
        (drop_path): DropPath()
        (norm2): LayerNorm((512,), eps=1e-06, elementwise_affine=True)
        (mlp): Mlp(
          (mlp): Sequential(
            (0): SeqToANNContainer(
              (0): Linear(in_features=512, out_features=1536, bias=True)
            )
            (1): MultiStepParametricLIAFNode(
              v_threshold=1.0, v_reset=0.0, detach_reset=True, tau=2.0, backend=torch
              (surrogate_function): Sigmoid(alpha=4.0, spiking=True)
            )
            (2): SeqToANNContainer(
              (0): Linear(in_features=1536, out_features=512, bias=True)
              (1): Dropout(p=0.0, inplace=False)
            )
          )
        )
      )
      (4): Block(
        (norm1): LayerNorm((512,), eps=1e-06, elementwise_affine=True)
        (attn): Attention(
          (qkv): Linear(in_features=512, out_features=1536, bias=False)
          (proj): Linear(in_features=512, out_features=512, bias=True)
          (proj_drop): Dropout(p=0.0, inplace=False)
          (attn_drop): Dropout(p=0.0, inplace=False)
        )
        (temporal_norm1): LayerNorm((512,), eps=1e-06, elementwise_affine=True)
        (temporal_attn): Attention(
          (qkv): Linear(in_features=512, out_features=1536, bias=False)
          (proj): Linear(in_features=512, out_features=512, bias=True)
          (proj_drop): Dropout(p=0.0, inplace=False)
          (attn_drop): Dropout(p=0.0, inplace=False)
        )
        (temporal_fc): Linear(in_features=512, out_features=512, bias=True)
        (drop_path): DropPath()
        (norm2): LayerNorm((512,), eps=1e-06, elementwise_affine=True)
        (mlp): Mlp(
          (mlp): Sequential(
            (0): SeqToANNContainer(
              (0): Linear(in_features=512, out_features=1536, bias=True)
            )
            (1): MultiStepParametricLIAFNode(
              v_threshold=1.0, v_reset=0.0, detach_reset=True, tau=2.0, backend=torch
              (surrogate_function): Sigmoid(alpha=4.0, spiking=True)
            )
            (2): SeqToANNContainer(
              (0): Linear(in_features=1536, out_features=512, bias=True)
              (1): Dropout(p=0.0, inplace=False)
            )
          )
        )
      )
      (5): Block(
        (norm1): LayerNorm((512,), eps=1e-06, elementwise_affine=True)
        (attn): Attention(
          (qkv): Linear(in_features=512, out_features=1536, bias=False)
          (proj): Linear(in_features=512, out_features=512, bias=True)
          (proj_drop): Dropout(p=0.0, inplace=False)
          (attn_drop): Dropout(p=0.0, inplace=False)
        )
        (temporal_norm1): LayerNorm((512,), eps=1e-06, elementwise_affine=True)
        (temporal_attn): Attention(
          (qkv): Linear(in_features=512, out_features=1536, bias=False)
          (proj): Linear(in_features=512, out_features=512, bias=True)
          (proj_drop): Dropout(p=0.0, inplace=False)
          (attn_drop): Dropout(p=0.0, inplace=False)
        )
        (temporal_fc): Linear(in_features=512, out_features=512, bias=True)
        (drop_path): DropPath()
        (norm2): LayerNorm((512,), eps=1e-06, elementwise_affine=True)
        (mlp): Mlp(
          (mlp): Sequential(
            (0): SeqToANNContainer(
              (0): Linear(in_features=512, out_features=1536, bias=True)
            )
            (1): MultiStepParametricLIAFNode(
              v_threshold=1.0, v_reset=0.0, detach_reset=True, tau=2.0, backend=torch
              (surrogate_function): Sigmoid(alpha=4.0, spiking=True)
            )
            (2): SeqToANNContainer(
              (0): Linear(in_features=1536, out_features=512, bias=True)
              (1): Dropout(p=0.0, inplace=False)
            )
          )
        )
      )
      (6): Block(
        (norm1): LayerNorm((512,), eps=1e-06, elementwise_affine=True)
        (attn): Attention(
          (qkv): Linear(in_features=512, out_features=1536, bias=False)
          (proj): Linear(in_features=512, out_features=512, bias=True)
          (proj_drop): Dropout(p=0.0, inplace=False)
          (attn_drop): Dropout(p=0.0, inplace=False)
        )
        (temporal_norm1): LayerNorm((512,), eps=1e-06, elementwise_affine=True)
        (temporal_attn): Attention(
          (qkv): Linear(in_features=512, out_features=1536, bias=False)
          (proj): Linear(in_features=512, out_features=512, bias=True)
          (proj_drop): Dropout(p=0.0, inplace=False)
          (attn_drop): Dropout(p=0.0, inplace=False)
        )
        (temporal_fc): Linear(in_features=512, out_features=512, bias=True)
        (drop_path): DropPath()
        (norm2): LayerNorm((512,), eps=1e-06, elementwise_affine=True)
        (mlp): Mlp(
          (mlp): Sequential(
            (0): SeqToANNContainer(
              (0): Linear(in_features=512, out_features=1536, bias=True)
            )
            (1): MultiStepParametricLIAFNode(
              v_threshold=1.0, v_reset=0.0, detach_reset=True, tau=2.0, backend=torch
              (surrogate_function): Sigmoid(alpha=4.0, spiking=True)
            )
            (2): SeqToANNContainer(
              (0): Linear(in_features=1536, out_features=512, bias=True)
              (1): Dropout(p=0.0, inplace=False)
            )
          )
        )
      )
    )
    (norm): LayerNorm((512,), eps=1e-06, elementwise_affine=True)
    (attention_pool): Linear(in_features=512, out_features=1, bias=True)
    (head): Linear(in_features=512, out_features=1000, bias=True)
  )
)
converting BN
Preparing loss function
Using label smothing
Preparing optimizer
Using SGD
Preparing scaler
Preparing learning rate scheduler
Preparing Distributed Data Parallel
DDP finished
Resuming
Preparing tensorboard logging
purge_step_train=93, purge_step_te=93
Start training
Epoch: [93]  [   0/8008]  eta: 12:46:01  lr: 0.001  img/s: 14.675027163801705  loss: 2.3355 (2.3355)  acc1: 70.0000 (70.0000)  acc5: 90.0000 (90.0000)  time: 5.7394  data: 4.3765  max mem: 17719
…
